pythonProject1/data.pth (torch, 4119 bytes, 6 tensors)

layer1.weight f4 [8, 33]
0	0xbef3c178	-0.47608542
1	0x3ed4c801	0.4155884
2	0xbf1860b2	-0.59522545
3	0xbe9235ac	-0.28556573
4	0xbdf8b5df	-0.12144064
5	0xbee70cdd	-0.45127
6	0x3f44db43	0.76897067
7	0x3e864bea	0.26229793
8	0x3eb56bbb	0.35433754
9	0xbe40241b	-0.18763773
10	0x3f23a359	0.63921124
11	0x3e504021	0.20336963
12	0xbe3ba96d	-0.1832635
13	0x3f42a368	0.7603059
14	0xbec84b90	-0.3912015
15	0x3e7ff355	0.24995168
16	0xbec89fcb	-0.39184412
17	0xbec8aa76	-0.3919255
18	0x3e580544	0.21095759
19	0x3e5900a1	0.21191646
20	0x3f060d61	0.52364165
21	0x3f18964e	0.59604347
22	0xbe13b077	-0.14422785
23	0x3ea802a1	0.32814506
24	0x3f3bdc01	0.73382574
25	0x3ec6df70	0.38842344
26	0xbee5779b	-0.44817814
27	0xbe29bd65	-0.16576155
28	0xbec2ae87	-0.3802378
29	0x3ea6f4bc	0.32608593
30	0x3eadbf05	0.339348
31	0x3e616248	0.22010148
32	0x3d667336	0.056262217
33	0x3e551d71	0.20812012
34	0xbe6e970e	-0.2329981
35	0x3f548841	0.83020407
36	0x3eed4c8b	0.4634746
37	0xbebbbd3c	-0.36667812
38	0xbeb72646	-0.35771388
39	0xbe9fce9f	-0.31212327
40	0xbe693755	-0.22775014
41	0xbe7ec23c	-0.24878782
42	0xbdbbe4b8	-0.09174484
43	0x3ee8de13	0.4548193
44	0x3f276950	0.6539507
45	0xbe61a4d4	-0.22035533
46	0xbe9fd3c0	-0.3121624
47	0xbe9fcabb	-0.3120936
48	0x3d44915a	0.04799018
49	0xbe9fd26d	-0.3121523
50	0xbe9fcfe5	-0.31213298
51	0x3f00a8fc	0.5025785
52	0x3edc0239	0.42970446
53	0x3d7a91e6	0.061174296
54	0x3f1aa324	0.6040518
55	0x3e9069d5	0.28205743
56	0x3d0061ec	0.031343386
57	0xbeb36b22	-0.35042673
58	0x3b3cbf76	0.0028800643
59	0x3ec56956	0.38556927
60	0x3e2e8558	0.17043054
61	0xbebf9da9	-0.37424973
62	0x3ea4e6dd	0.32207385
63	0xbe261fc2	-0.16223052
64	0x3f05ba4d	0.522374
65	0xbec6e4c5	-0.38846412
66	0xbe85701c	-0.26062095
67	0x3e15af03	0.14617543
68	0xbef4092e	-0.47663254
69	0xbdbedc6f	-0.09319388
70	0xbe580c1a	-0.21098366
71	0xbe97739f	-0.295804
72	0xbdc31203	-0.0952492
73	0x3f00a787	0.50255626
74	0x3e875c08	0.26437402
75	0xbe8f0e3d	-0.2794055
76	0x3f2de885	0.6793292
77	0x3e2624c5	0.16224964
78	0xbd5c2ca7	-0.05375352
79	0xbc755452	-0.014973717
80	0xbeaa90cc	-0.33313596
81	0x3e4aa070	0.19787765
82	0xbeaa96cd	-0.33318177
83	0xbeaa90bf	-0.33313558
84	0x3d6f0bc1	0.05836082
85	0x3d5a6c8f	0.053326186
86	0xbd308359	-0.043094013
87	0x3f1351e4	0.5754683
88	0xbd52ac69	-0.051433954
89	0x3eb22fe1	0.34802154
90	0x3f3ffce9	0.74995285
91	0xbd35a09f	-0.044342633
92	0xbeaa8f2f	-0.33312365
93	0xbe8aa026	-0.2707531
94	0xbe1832b0	-0.14863086
95	0x3eb867ad	0.36016598
96	0x3ea6c241	0.3257008
97	0x3e9679b2	0.2938972
98	0xbd77edfe	-0.0605297
99	0x3f1fac26	0.6237205
100	0x3ed5919e	0.4171266
101	0xbe452314	-0.19251662
102	0xbe7ce9d6	-0.24698576
103	0xbe49d2ab	-0.1970927
104	0xbedb4e1a	-0.42833024
105	0x3f11f553	0.5701496
106	0x3ede7009	0.4344485
107	0x3e13899f	0.14407967
108	0xbe7f74b4	-0.24946862
109	0xbdc8c848	-0.098038256
110	0xbe9ab5bd	-0.3021678
111	0xbe7b2e0a	-0.24529281
112	0x3f1d369c	0.6141145
113	0xbefd3e42	-0.4946156
114	0x3ed1a602	0.40946966
115	0xbefd40bf	-0.4946346
116	0xbefd3f00	-0.49462128
117	0xbede2c3b	-0.4339312
118	0xbe0dbf58	-0.13842523
119	0x3f00ad05	0.50264007
120	0xbeaedce2	-0.34152895
121	0x3ef84418	0.4848945
122	0x3ea67e95	0.3251845
123	0x3f0f0b8d	0.55877
124	0x3ee32595	0.4436461
125	0x3f5890dc	0.8459604
126	0x3efb0121	0.490243
127	0xbe22f976	-0.15915474
128	0x3daa7d3b	0.08324667
129	0x3dc689a5	0.09694222
130	0xbde88ca8	-0.11354953
131	0x3ebc3ae1	0.3676367
132	0x3edb2a1e	0.4280557
133	0x3e80e9fd	0.2517852
134	0xbd906000	-0.070495605
135	0xbd34ee0a	-0.044172324
136	0x3eb08702	0.34478003
137	0x3e809615	0.25114504
138	0xbefe7f56	-0.49706525
139	0x3d15c284	0.036562458
140	0x3e82a05c	0.2551297
141	0x3ee7f21e	0.45301908
142	0xbefdc41b	-0.4956368
143	0xbe4dde70	-0.20104384
144	0x3f0ca736	0.54942644
145	0xbedcf616	-0.431565
146	0x3f088d7b	0.5334088
147	0x3eb9bb4f	0.36275718
148	0x3f0fd525	0.5618461
149	0x3f018522	0.5059377
150	0x3e90ecda	0.28305703
151	0x3e31b74d	0.1735508
152	0xbeb8cab5	-0.36092153
153	0xbee59459	-0.44839743
154	0x3ecb8dca	0.39756614
155	0x3ea47d2c	0.3212675
156	0x3ef5d947	0.48017332
157	0xbeb1f31a	-0.34755784
158	0x3f630bcb	0.8868987
159	0x3e886852	0.2664209
160	0x3edcc5b9	0.431196
161	0xbd23b4f8	-0.039967507
162	0x3eb12acd	0.34602967
163	0xbe3a4cae	-0.18193313
164	0x3ec07374	0.37588084
165	0x3f1fd54b	0.62434834
166	0x3df0e438	0.11762279
167	0x3f35fbea	0.71087515
168	0x3e6ab2d9	0.22919787
169	0xbd6c93af	-0.05775803
170	0xbed02540	-0.4065342
171	0x3f4a61cb	0.7905547
172	0xbea3572e	-0.3190245
173	0xbea07b66	-0.31344146
174	0xbe602541	-0.21889211
175	0xbe8cc05f	-0.27490517
176	0x3e8130e2	0.25232607
177	0xbc9fb56e	-0.019495692
178	0x3f538721	0.82628065
179	0xbeba09b7	-0.36335537
180	0x3e90d608	0.28288293
181	0xbeab8c77	-0.33505604
182	0xbe325743	-0.174161
183	0xbdda049a	-0.10645409
184	0x3e197e85	0.1498967
185	0x3f0ae6f5	0.5425866
186	0xbe9dafdb	-0.3079823
187	0x3ebb6d77	0.36606953
188	0xbddca9ee	-0.10774599
189	0xbf17859e	-0.5918826
190	0x3ea4b566	0.32169646
191	0x3f5be44a	0.85895216
192	0x3f0d5a52	0.5521594
193	0xbe1ee46c	-0.15516824
194	0x3e414b06	0.18876275
195	0xbe22344f	-0.15840267
196	0x3ed564e0	0.41678524
197	0x3eca9613	0.39567623
198	0xbe54745f	-0.20747517
199	0xbe41e302	-0.18934253
200	0x3f076c90	0.5290003
201	0x3ed1ce71	0.40977815
202	0x3ef882a5	0.48537174
203	0x3f13e55c	0.5777185
204	0x3f06fe56	0.52731836
205	0xbeab3775	-0.33440748
206	0xbe8f7ae1	-0.28023437
207	0x3ea0b265	0.31386104
208	0x3ed5ec3d	0.41781798
209	0x3ee8ceb7	0.4547021
210	0x3ece3041	0.4027119
211	0x3f103e03	0.5634462
212	0x3f011714	0.5042584
213	0xbe339303	-0.1753655
214	0x3f02163b	0.5081517
215	0x3f2c182b	0.6722438
216	0x3ee95f54	0.45580542
217	0x3edf386c	0.43597734
218	0x3e92f10b	0.28699526
219	0x3e3114f7	0.17293154
220	0xbe55c428	-0.20875609
221	0x3d2554ab	0.04036395
222	0xbf3d48c7	-0.73939174
223	0x3e97d523	0.29654798
224	0xbf3d49b7	-0.73940605
225	0xbeb685a4	-0.35648835
226	0x3ebd2f9f	0.36950395
227	0x3ebc1b19	0.36739424
228	0xbe1fe95b	-0.15616362
229	0x3e98c063	0.2983428
230	0x3e04d25d	0.12970872
231	0x3f06f8c8	0.5272336
232	0x3ea4cbad	0.32186642
233	0x3f1bf2a4	0.60917115
234	0x3e95a2c4	0.29225743
235	0xbdc6c2fc	-0.09705159
236	0xbee59239	-0.44838122
237	0xbec692b7	-0.3878381
238	0x3e49057c	0.19630998
239	0x3d9847f7	0.07435601
240	0xbe41ff01	-0.18944933
241	0x3e12336c	0.14277428
242	0x3f06ca58	0.526525
243	0xbe56f793	-0.2099288
244	0xbecc7569	-0.39933327
245	0xbe8e1a50	-0.2775445
246	0x3ebff635	0.3749253
247	0xbe9ef91c	-0.3104943
248	0xbec10d6f	-0.37705562
249	0x3d9eabd0	0.077476144
250	0x3e3e3c30	0.18577647
251	0xbe9005c2	-0.28129393
252	0x3e0841b0	0.13306308
253	0x3ef12261	0.47096542
254	0x3df15db4	0.117854506
255	0x3f379ca7	0.7172341

layer1.bias f4 [8]
0	0x3ec8a0a0	0.39185047
1	0x3e9fcba3	0.3121005
2	0x3eaa90cd	0.333136
3	0x3efd3e87	0.49461767
4	0x3f57c937	0.84291404
5	0x3f1786aa	0.59189856
6	0x3f3d4825	0.7393821
7	0x3ecc7d48	0.39939332

layer2.weight f4 [8, 8]
0	0xbf326d0e	-0.69697654
1	0x3f820c91	1.0160085
2	0xbf22eff9	-0.6364742
3	0x3e9602bf	0.2929897
4	0x3e5b4e73	0.21416645
5	0x3f583d1e	0.8446826
6	0xbecc41af	-0.39893863
7	0x3f609e9d	0.87742025
8	0xbeba9fcc	-0.3645004
9	0xbf4646c4	-0.7745173
10	0xbf149aaa	-0.580485
11	0xbf350912	-0.70716965
12	0x3f6cfb73	0.9257118
13	0xbea0db6b	-0.31417403
14	0x3f1f76f1	0.62290865
15	0xbe6c0c66	-0.23051605
16	0x3dcb6b87	0.099326186
17	0xbec339a8	-0.38129926
18	0xbf56bb12	-0.83879197
19	0x3f2bc385	0.67095214
20	0x3e4feb0e	0.2030451
21	0x3f8d0dfd	1.1019894
22	0x3f82e414	1.0225854
23	0xbf0df235	-0.55447704
24	0xbf819815	-1.0124537
25	0x3eebcc5a	0.46054345
26	0xbf2eeeb6	-0.68332994
27	0xbf0d8b05	-0.5529025
28	0x3f7e9f57	0.99461883
29	0x3ee3cc7e	0.44491953
30	0x3f02936a	0.51006186
31	0x3f3f0dfb	0.7463071
32	0x3f2e14fb	0.68000764
33	0x3f70556a	0.9388033
34	0x3f052c9a	0.5202118
35	0xbf1a6923	-0.60316676
36	0xbf2e522d	-0.6809414
37	0x3f0a8674	0.5411141
38	0x3f3d4cb0	0.7394514
39	0x3e93c6c5	0.28862587
40	0x3f7c36ff	0.9852142
41	0xbf5b51cd	-0.85671693
42	0x3f414393	0.75493735
43	0x3f254b9f	0.64568514
44	0x3dae0af1	0.08498181
45	0x3ea505cc	0.32230985
46	0xbe8f4e28	-0.27989316
47	0x3e969c38	0.2941606
48	0x3ee22fbe	0.4417705
49	0xbf361cec	-0.7113788
50	0x3eabf145	0.33582512
51	0x3f88f614	1.0700097
52	0x3f0c0497	0.54694504
53	0x3f2e43a2	0.6807195
54	0xbf49e68a	-0.788674
55	0x3f27b837	0.65515465
56	0x3f2ffafa	0.68742335
57	0x3d77fc8a	0.060543574
58	0x3f6bf988	0.9217763
59	0x3e885957	0.2663066
60	0x3f05acdc	0.5221689
61	0xbf119f52	-0.5688373
62	0xbf0310f0	-0.5119772
63	0x3f610a3d	0.8790625

layer2.bias f4 [8]
0	0xbdc8e8e9	-0.09810049
1	0x3f2458df	0.64198107
2	0x3ee1670b	0.44023928
3	0x3ea03595	0.3129088
4	0x3e3005b8	0.17189682
5	0x3df7b988	0.12095934
6	0x3edf5488	0.4361918
7	0xbd67f2b6	-0.05662795

layer3.weight f4 [6, 8]
0	0x3f25e128	0.64796686
1	0xbf620c36	-0.8829988
2	0xbe837aa0	-0.25679493
3	0x3f1834d7	0.5945563
4	0x3ebe4aab	0.37166342
5	0xbf76a8e7	-0.96351475
6	0xbf626ef4	-0.8845055
7	0xbf6f4028	-0.9345727
8	0xbe50d641	-0.20394231
9	0xbe7c46a7	-0.24636327
10	0xbf847374	-1.0347733
11	0xbf3a6995	-0.72817355
12	0x3f5e6616	0.8687452
13	0xbe927ad7	-0.28609344
14	0xbf1cf727	-0.61314625
15	0x3dcd1cdb	0.10015269
16	0xbedb3469	-0.42813423
17	0xbedadc5e	-0.42746252
18	0xbf9bdb00	-1.2176208
19	0xbf40aa26	-0.75259626
20	0xbf4d5f35	-0.802234
21	0x3f23a44c	0.6392257
22	0x3e9cef02	0.30651098
23	0x3f0e1c42	0.5551187
24	0xbf3ff001	-0.7497559
25	0xbf7b776f	-0.98229116
26	0x3f4dcd3c	0.8039129
27	0xbf77edae	-0.96847045
28	0xbcaffa35	-0.021481613
29	0x3ea83599	0.32853392
30	0x3e0fea07	0.14054118
31	0xbf93c106	-1.1543281
32	0xbf8c8f07	-1.0981148
33	0x3f921d06	1.1415107
34	0x3ee9c5d5	0.45658746
35	0x3f39057d	0.72274
36	0xbf1d1a75	-0.61368495
37	0xbfab23aa	-1.3370259
38	0xbebee7ed	-0.3728632
39	0xbf4cb417	-0.79962295
40	0x3f2e0c01	0.67987067
41	0xbf45834c	-0.7715347
42	0xbe45dc66	-0.19322357
43	0x3e874bfe	0.26425165
44	0xbf9a22ae	-1.2041833
45	0xbec25dc1	-0.37962154
46	0x3ed1efee	0.41003364
47	0xbe8b34cd	-0.2718872

layer3.bias f4 [6]
0	0xbef1c77f	-0.47222516
1	0x3d088755	0.033332188
2	0x3e3167d0	0.17324758
3	0x3ea41279	0.32045344
4	0x3bf21c71	0.0073886444
5	0xbe7770a3	-0.24164061
